ANNmodel.pth (torch, 874834 bytes, 6 tensors)

l1.weight f4 [256, 784]
000000 21 f4 49 bc 30 d6 82 3c 61 25 3b 3c ee e7 8e 3b
       -0.012326271 0.015971273 0.011422486 0.0043611443
000010 8a a5 9e 3c 1c 72 e3 bb cd d9 0b 3d 05 db b7 bc
       0.019366045 -0.006941093 0.034143258 -0.022443304
000020 6e 83 8c bb f8 02 ec bc c3 4d cb 3c aa fc d7 3c
       -0.0042881286 -0.02881001 0.024817353 0.026365597
000030 8e 71 90 3c 43 b2 57 bd ee e8 1c 3d 7d 36 ff bc
       0.017632272 -0.052660238 0.038308077 -0.031153912
000040 d7 9d 06 bc 25 ed ea bc ca d8 90 bc 98 6c 6b 3c
       -0.008216343 -0.028677532 -0.017681498 0.0143691525
000050 d1 a1 b1 3c 2e 58 08 3c 1c 63 ab bb 13 e6 67 3b
       0.021683605 0.008321805 -0.0052303206 0.0035384938
000060 ae a3 97 3b 81 0e e1 bb 74 e7 0d 3d 33 bf 0a bd
       0.0046276664 -0.006868184 0.03464456 -0.033873748
000070 c1 b7 33 3c 8c aa 9a 3c 93 3c 48 3b 61 73 61 bc
       0.010969103 0.018880151 0.0030553683 -0.013760419
000080 75 05 02 3d 34 2d 50 bd 85 43 35 bd 91 40 12 bd
       0.031743485 -0.05082436 -0.044253845 -0.035706107
000090 02 17 7f bd d0 67 66 bd 62 26 7a bd b2 78 b7 bd
       -0.0622778 -0.056251347 -0.06107176 -0.08958568
0000a0 cd a8 95 bd e2 50 03 be df 1a 03 bc 73 e0 3a be
       -0.07307587 -0.12823823 -0.008002012 -0.18249683
0000b0 2a 69 18 be 78 aa 08 be 3d 32 d4 bd 0c 53 82 bd
       -0.14883867 -0.13346279 -0.10361145 -0.06363496
0000c0 78 86 00 be 45 9c 5c bd 83 50 1e bd 48 cd 44 bd
       -0.12551296 -0.053859968 -0.038651 -0.048047334
0000d0 4a 13 83 bb 25 c8 f2 3b bc 8b e0 bc b8 b8 11 bd
       -0.004000102 0.007409113 -0.02741038 -0.035576552
0000e0 bc b8 67 bc 9c 5d a6 3c b3 e4 45 bd 8a 9a 08 be
       -0.014143165 0.020308308 -0.048313808 -0.13340202
0000f0 42 5f fa bd a2 f5 97 bc 70 b5 ae bd 82 11 d2 bd
       -0.122252 -0.018549744 -0.085307 -0.102572456
000100 9f 7a a0 bd a5 4f 33 be ef 97 8f be fb 77 d3 be
       -0.07835888 -0.1751085 -0.28045604 -0.41302475
000110 7d 7a 86 be a9 db a4 be 64 d9 83 be 59 e3 fe bc
       -0.26265326 -0.32198837 -0.25751793 -0.031114267
000120 4e 0f 16 3d 57 0e b2 bb 41 1c 51 bd 27 90 56 bd
       0.03663569 -0.0054338383 -0.051052336 -0.05238357
000130 26 a5 b5 3b 1e 4f 65 be cd 38 62 be 2d 08 14 be
       0.005543369 -0.22393462 -0.2209198 -0.14456244
000140 15 b9 c8 bc 41 dc ae bd c7 eb 06 3d ee 06 d2 bb
       -0.024502316 -0.08538104 0.0329397 -0.0064095175
000150 ca 54 c3 bb 65 f5 07 bd ce b1 74 bc 05 94 01 be
       -0.0059610354 -0.03319301 -0.01493497 -0.12654121
000160 7b 39 e9 bd 2b c3 7d be ee d4 a0 be 05 82 89 be
       -0.11387917 -0.24781482 -0.31412452 -0.2685701
000170 1f 99 88 be cb dc 11 bf 9f b1 3a be fd 6a 3d bd
       -0.26679322 -0.5697753 -0.1823182 -0.04624461
000180 1e 66 9f be bc b3 06 bf 97 08 08 bf b8 84 75 be
       -0.31132597 -0.52618 -0.5313811 -0.2397641
000190 11 a5 b2 bd 1a 08 76 bc f3 3d 19 3e 3c c7 ae 3d
       -0.0872289 -0.01501658 0.14965038 0.08534095
0001a0 e5 f3 83 3d 1a 35 f6 3d 84 c6 c5 bb a1 0a 67 be
       0.064430036 0.12021847 -0.006035628 -0.22562648
0001b0 82 4f 90 bc f9 4a c4 be c1 20 17 be d5 0a c4 3c
       -0.017616037 -0.3833845 -0.14758588 0.023930946
0001c0 1c 97 ce bc 13 e8 87 bc 18 62 88 bd 3c 97 6c 3d
       -0.025218539 -0.016590154 -0.06659335 0.057761416
0001d0 05 ae ca bd 16 1e e0 bd c7 c8 ec bd 54 f9 b3 bd
       -0.09896473 -0.109432384 -0.11561733 -0.0878779
0001e0 7c 9b e7 be 20 4a 3f bf af e9 f1 be a5 5c df be
       -0.45235813 -0.7472248 -0.472486 -0.4362537
0001f0 e4 5c 1c bf 63 00 28 bf b4 18 23 bf 24 a9 fe bd
       -0.6107924 -0.6562559 -0.6370957 -0.12434605
000200 9a 54 df bd c9 98 0d be 3c ba 60 bd 92 70 26 be
       -0.10904808 -0.13827814 -0.054865107 -0.1625388
000210 72 77 ba bd f6 f3 21 bc b6 f1 48 3e f7 9c 2d 3e
       -0.09104814 -0.009884825 0.19623455 0.16954409
000220 b7 74 db 3e 1d 0c 81 3e 6d 25 6e 3e 53 09 92 bc
       0.42862484 0.25204554 0.23256464 -0.017826712
000230 be 3e 09 3d 5e df d1 3c 2b 6c 69 bd 2c ed f6 bd
       0.0335071 0.025619205 -0.056987923 -0.12056956
000240 32 b1 92 bd 6b 07 2e be 3f 59 82 bd a6 17 d4 bd
       -0.071627036 -0.16995017 -0.063646786 -0.10356073
000250 7b 4d 7b be d2 52 91 be 5a c7 93 be 8a e4 41 be
       -0.24541275 -0.283835 -0.2886303 -0.18934837
000260 26 1c 0b be 72 94 80 be fb 8e 18 be f9 25 9a bd
       -0.13584957 -0.25113255 -0.14898293 -0.07526774
000270 7a f1 2a be b7 87 12 be 52 07 97 bd d7 af 09 be
       -0.16693678 -0.14309584 -0.07374443 -0.13445984
000280 b7 d5 3c bd 5a 7d 79 be 77 78 1d be f5 f7 31 3e
       -0.04610225 -0.24364224 -0.15377985 0.17379744
000290 d7 9c 81 3e 9b 13 63 3e ae 87 37 3b 97 67 24 bd
       0.25314972 0.22175448 0.0028004455 -0.040137853
0002a0 17 21 28 bc 18 5b 02 bd f4 c8 2e 3e fa 78 03 bd
       -0.0102617955 -0.031825155 0.17068845 -0.032097794
0002b0 df 2d 21 be 69 8a 2a be 8d 66 97 bd cd 07 9a bc
       -0.15740155 -0.16654362 -0.07392607 -0.018802548
0002c0 34 b5 94 bd 57 fc 37 3d 57 8c 28 bd a6 b6 fe bd
       -0.07261124 0.044918384 -0.041149464 -0.12437181
0002d0 32 05 47 bd 1f af 95 bc 77 4d b7 bb 97 42 7d 3d
       -0.04858894 -0.01827198 -0.0055939513 0.061831083
0002e0 36 d3 f3 3c 13 a0 ab 3c ec 63 f7 3d 14 50 8c 3d
       0.0297638 0.020950353 0.120796055 0.06851211
0002f0 e2 4c 28 3e 02 ce aa 3d 79 90 03 3e 6b dd 72 3d
       0.16435578 0.08340074 0.1284808 0.059293192
000300 fd 48 70 3d e8 e0 d1 3d 58 e5 9c bd 50 77 05 be
       0.058663357 0.102479756 -0.07660931 -0.13033795
000310 e1 f1 6f bc 48 0c 58 3b 80 d9 bd 3d 9e b2 fb 3d
       -0.014645071 0.0032966305 0.092700005 0.12289928
000320 28 e7 ac 3c 57 a6 81 be d5 b6 03 3c 3e 8c 2d be
       0.021106318 -0.2532222 0.008039196 -0.1694803
000330 90 a8 0c 3c c5 08 d4 ba bb 54 20 bd 19 c8 13 bd
       0.00858511 -0.001617693 -0.039143305 -0.0360795
000340 cd a0 e0 3d aa 02 f4 3d 1c 55 e7 3d 4b fb 08 3e
       0.1096817 0.11914571 0.1129553 0.1337711
000350 60 08 02 3e ae 27 89 3d 58 1a 83 bc fd 30 9e 3d
       0.12698507 0.066970214 -0.016003773 0.077241875
000360 fa 35 c1 3d cb be 78 3d d7 41 b8 3d 43 d9 31 3e
       0.09434123 0.06072883 0.08996933 0.17368035
000370 b2 23 a2 3d 0a 28 da bd a5 f4 fa ba be d7 11 be
       0.079169646 -0.10652168 -0.0019146396 -0.14242455
000380 f0 ee 93 be db 94 5d bd dc 51 03 bd 0f 9b 59 3e
       -0.28893232 -0.054097038 -0.03206049 0.21250556
000390 6b af 69 3d a4 94 ef bd 5f bb d8 bd 82 6a 9e bd
       0.057052057 -0.11698273 -0.10582613 -0.077351585
0003a0 ed 04 30 3d 93 67 96 3d e6 ac d7 3c 97 a5 ad 3d
       0.042973448 0.07343974 0.026327562 0.084788494
0003b0 13 f2 f0 3d c6 70 20 3d f7 11 d9 3d 64 0d e8 3d
       0.11764922 0.03917005 0.1059913 0.11330679
0003c0 0d 8e ac 3d 7d f0 6e bc 90 57 35 3d 61 71 1b 3e
       0.084255315 -0.014583704 0.04427296 0.1517997
0003d0 1d 98 dd 3d 97 58 7e 3d aa 86 01 3d ef df 3e bd
       0.10820029 0.062096205 0.031622566 -0.04660028
0003e0 8b 22 bd bc 3a b0 40 be 2f 29 2d 3e 47 71 ce 3d
       -0.02308776 -0.18817225 0.16910242 0.100802
0003f0 f6 5f 47 bc 55 9d 28 bd 04 2c 03 3e 37 76 1f bc
       -0.012168875 -0.04116567 0.1280976 -0.009732774

l1.bias f4 [256]
000000 b9 0a 27 3d af 5f 30 bd 94 97 12 bd 7f f7 98 bc
       0.04078171 -0.04306 -0.035789087 -0.018672703
000010 7d 4c ca 3d 58 f8 1f 3d 0f 1d e9 bd 3e 07 7f 3d
       0.0987787 0.0390552 -0.113824956 0.062262766
000020 47 70 59 3c 54 dc 8c 3d f1 1e b1 3c 6f 7c 09 bd
       0.013271398 0.06877962 0.0216212 -0.033565935
000030 38 a3 ee bd 7c 65 f5 3d df 3a b9 3c ab db 12 3e
       -0.11652225 0.11982247 0.02261108 0.14341609
000040 dc cb 0a 3d d4 47 61 3d 00 5d d2 3c 6d 17 5f bd
       0.03388582 0.05500014 0.025679111 -0.0544657
000050 7c 76 3c 3d f6 28 d5 bb 2b 82 28 bd 61 25 09 39
       0.046011433 -0.006505127 -0.041139763 0.00013079263
000060 1e 43 23 ba 37 f1 2c 3e 1c 91 21 3d e2 1d 9f 3a
       -0.0006227958 0.16888891 0.039445028 0.0012139643
000070 2f 86 8c 3c 32 e3 32 3e 1e a7 0c 3e 96 71 87 bb
       0.017153827 0.1746948 0.13735625 -0.0041334135
000080 63 8d d3 3d 56 32 c0 39 d8 9c 20 bd 88 34 19 3e
       0.10329702 0.00036658597 -0.039212078 0.14961445
000090 de 92 c9 bd 26 1f a6 bd 4a 23 01 3d 6d 42 d2 bc
       -0.09842466 -0.0811141 0.031527795 -0.02566644
0000a0 4e 23 6b 3a 6f 96 fb 3d 46 87 61 3d 12 13 0e 3d
       0.00089697994 0.12284552 0.055060647 0.034686156
0000b0 34 8f 9c bc 19 4d 05 3e f7 54 0f bd b7 37 92 bd
       -0.019111253 0.13017692 -0.03499314 -0.07139533
0000c0 75 46 c7 3b 56 25 22 3e 27 c3 a1 bd b1 3a 29 bd
       0.006081397 0.15834555 -0.078985505 -0.041315738
0000d0 8d 6a 2f 3d 2e 2d 94 bb ef c6 d7 3c 19 39 67 3c
       0.042826224 -0.0045219874 0.026339976 0.014112734
0000e0 55 64 38 3c 22 07 53 bd 08 e7 ca bc 55 0e 09 3e
       0.01125439 -0.051520474 -0.024768367 0.13384373
0000f0 cf a8 ea ba 31 37 cb 3d b1 7d 48 3d 5a 6e c9 bd
       -0.0017903092 0.09922636 0.048947994 -0.09835501
000100 6b cf 27 3d d0 e5 05 3e 85 5e be 3d 9f 53 ed 3d
       0.040969294 0.13075948 0.09295372 0.11588215
000110 ac 3a 8d bd 02 79 10 3b 9c 61 78 3c eb 4d bc 3c
       -0.068959564 0.0022044783 0.015159991 0.022986373
000120 e6 2f cc bd 36 c1 32 3d 4a 97 5a 3c bb c7 36 bc
       -0.099700734 0.04364129 0.013341734 -0.011156018
000130 b4 a5 01 be 56 fe 2b bd 6d 63 2a 3d f3 a2 d6 3d
       -0.12660867 -0.0419906 0.041598726 0.10480299
000140 6d 2b 5e 3d b7 7f 05 3d e1 8b e0 3c 7a c2 9b 3d
       0.054240633 0.0325925 0.02741045 0.07605453
000150 d9 d5 96 3d 90 a8 58 3d e8 59 3f bd e6 cb a5 bd
       0.07365007 0.05289513 -0.0467166 -0.08095531
000160 c6 4a 25 bd 18 5a 9e 3b ed b0 79 bd a1 b5 50 3d
       -0.040354513 0.0048325174 -0.060959745 0.050954465
000170 a2 44 ac 3d 9f ed 9a bd de 0c 6f bd a8 c1 4b 3c
       0.08411528 -0.07564854 -0.05836188 0.012436308
000180 e9 5e c3 3d cc 04 99 3c 7c ea 76 3d 33 49 a8 3d
       0.09539587 0.018679045 0.060282215 0.08217087
000190 00 f6 50 bd f0 43 13 bd 21 91 00 bd 84 72 3a bd
       -0.051015854 -0.035953462 -0.031388406 -0.045519367
0001a0 21 3e 09 be 2e ce 52 3d 89 41 7e 3d 09 b4 86 3d
       -0.13402607 0.05146616 0.062074218 0.06577308
0001b0 92 c7 e7 bb e6 d1 f4 bc fe de b7 3d a4 08 06 3e
       -0.007073351 -0.029885244 0.08978079 0.13089234
0001c0 07 74 3c bc 95 ec 61 3d 1a c2 82 bd 72 b9 8c 3d
       -0.011502272 0.055157263 -0.06384678 0.068713084
0001d0 96 7c 0e bd 30 b8 3f 3e 18 08 46 3c b8 17 17 3e
       -0.034786783 0.18722606 0.012086891 0.14755142
0001e0 48 8e 8f bd 7b 8e 60 bd ed 4f 16 bc 4c c9 1f bc
       -0.0700956 -0.05482338 -0.009174329 -0.009752583
0001f0 c8 b9 a9 3d d0 d5 96 bd aa ee 75 3d ab 12 91 3b
       0.08287388 -0.07365 0.06004206 0.004427274
000200 50 c9 e8 bc 53 2e 84 3e d0 42 a1 3d c1 c0 04 be
       -0.028416306 0.25816593 0.078740716 -0.12964155
000210 b5 16 0b bd a3 0b b2 3d 17 4c 17 bb 69 b3 62 3d
       -0.033957202 0.08693626 -0.0023086125 0.05534688
000220 ce 92 b3 bc d3 db 76 bc e4 12 05 3d 66 86 1d be
       -0.021920588 -0.015067059 0.03248872 -0.153833
000230 af da 22 3e 24 32 88 3d b0 5a 1c bc c3 48 e6 bc
       0.15903734 0.066501886 -0.009543106 -0.028110867
000240 07 ef 51 3d 01 3f 6f bc 15 4e 79 bd ac 4b b8 3c
       0.051253345 -0.014602424 -0.06086548 0.02249702
000250 be a0 9a bc b3 19 50 3c 9b 2f fa 3c 90 f9 73 bb
       -0.018875476 0.01270144 0.030540278 -0.0037227608
000260 4b 4f 08 3e 35 38 91 3d 72 e8 a5 bd 78 13 19 bd
       0.13311498 0.07090799 -0.08100976 -0.037372082
000270 c4 29 81 bc 8a 98 27 bd 56 3d 7c 3d 36 e4 5e 3d
       -0.015766986 -0.040916957 0.061581932 0.054416858
000280 c0 87 05 3c b0 01 18 3e 06 69 a8 3d ff 9c 33 3d
       0.008150041 0.14844394 0.08223157 0.043850895
000290 ce 45 01 3d cc 7c 07 bd d2 41 17 bb c0 3f 3c 3c
       0.03156071 -0.033078 -0.0023080003 0.011489809
0002a0 3b 81 a8 bd 46 cf 21 b9 ec a4 ab 3c 7a 87 92 bc
       -0.08227774 -0.00015431372 0.020952664 -0.017886866
0002b0 f9 5d fb 3d 0c 43 27 3d 2c 87 35 3e 07 c5 f7 bd
       0.12273783 0.040835425 0.17727345 -0.12098127
0002c0 b6 27 a8 3c 64 74 07 3d 65 7c ec bd df 2d e7 bc
       0.020526748 0.033069983 -0.11547164 -0.028220115
0002d0 cf 4c 85 bc 02 9d e1 3b c7 38 8f 3c 3a d4 22 3d
       -0.016271977 0.006885172 0.017483128 0.039753176
0002e0 d1 bf 39 3d 5a 8d d0 bc ac 42 15 be 89 97 0c 3e
       0.045348946 -0.025458027 -0.14576215 0.13729681
0002f0 76 3e 48 3d 96 76 9c bc f2 22 03 3e e6 fc c5 bd
       0.048887692 -0.019099515 0.128063 -0.09667377
000300 bf d0 03 be d3 6d 40 37 a4 28 17 3e 7f 19 f6 3c
       -0.12872599 1.1469662e-05 0.14761597 0.030041454
000310 22 3e f9 b9 b1 5d 0d 3e 2f f8 fb 3d bd fe c3 bd
       -0.00047539274 0.13805272 0.12303197 -0.09570072
000320 ea d0 22 3e b7 c2 31 bd cb 14 2b 3c 70 62 90 bc
       0.15900007 -0.043398585 0.010441969 -0.017625064
000330 24 4d 13 bd 92 70 1f 3d 5e 79 84 3d ea 72 67 be
       -0.03596224 0.038925715 0.064684615 -0.2260243
000340 06 1b c3 3c 24 d1 1d bd fb 9a de 3b 4f 5f 04 3e
       0.023816597 -0.03852953 0.0067933775 0.12926982
000350 ff df 5e 3d 7b 95 07 be a2 a7 89 3b f1 56 91 3b
       0.054412838 -0.13240616 0.0042008916 0.004435413
000360 45 3d 7f bd 9e 93 0c 3e fa b2 42 bc 90 ac 14 bc
       -0.06231429 0.13728186 -0.011883492 -0.009074345
000370 7b ad 25 3e 0d fc 02 3e fe 0b 6c 3c 7c cc 88 bd
       0.16179459 0.12791462 0.014407156 -0.06679627
000380 6b 27 b0 bd 44 ea b8 bb 83 5f f0 3c db dc 19 bd
       -0.086012684 -0.005643161 0.029342419 -0.03756414
000390 a7 3b c8 bc f7 d0 a0 3d 7d 36 2a 3e 9b 83 a4 3d
       -0.024442507 0.07852357 0.16622348 0.08032914
0003a0 3a c5 0a be 6d 39 3e 3c de 3f 4c bd ff 6f f2 3b
       -0.13551798 0.011610371 -0.049865596 0.007398605
0003b0 6b 4e 4d bd 68 17 dd 3d aa 96 eb 3d 5d 82 73 bd
       -0.050123613 0.1079548 0.11503346 -0.059450496
0003c0 04 05 67 3d 78 38 de bd fb 02 2c 3d 15 73 6b 3c
       0.056401268 -0.10850614 0.04199503 0.014370699
0003d0 95 a2 6f bd c4 41 cf bd 0c cb aa 3c 1c 1e 8e bd
       -0.05850466 -0.10119966 0.020848773 -0.06939337
0003e0 e5 49 20 bd 90 1b 05 3c 83 3e 9c 3d 97 52 df 3d
       -0.03913297 0.008124247 0.07629111 0.10904425
0003f0 97 ba f8 bb 79 a9 75 bd 59 5e 35 3d 63 4a 0f bd
       -0.0075906026 -0.059976075 0.04427943 -0.03498305

l2.weight f4 [64, 256]
000000 b0 ad 58 be 2c 7a c3 bc b3 20 18 3d 82 d5 e6 bd
       -0.21160007 -0.023861967 0.03714056 -0.11271192
000010 16 a1 8b 3c 62 6e ca 3d 56 38 8f bd 01 14 e5 bd
       0.017044585 0.09884335 -0.06993167 -0.11185456
000020 f2 a0 78 3d 6d a0 de bc 5e 41 86 be 29 c4 f9 bc
       0.060700364 -0.027176106 -0.26221746 -0.030489044
000030 c7 d7 a6 3d 55 29 2c be 84 19 67 3d 6b 99 c4 bc
       0.08146625 -0.16812642 0.056420818 -0.023998937
000040 15 f0 8b bd 3c 14 79 bd a9 c7 c9 3d 58 7a 52 bd
       -0.068329014 -0.060810313 0.09852535 -0.051386207
000050 13 d6 4d be ca a0 87 3c 9b 5a 56 bd 19 0d 0f 3e
       -0.20101194 0.016556162 -0.0523325 0.1396984
000060 75 83 c6 bc b5 17 00 3e ff 1d 92 3e 8b c0 85 3e
       -0.024232605 0.12509044 0.2853851 0.2612346
000070 06 9f 2f be ad 44 40 bc 2c 00 06 be 1e 0f 8b 3e
       -0.17150506 -0.011735124 -0.13086003 0.2715997
000080 2a 88 e4 3d ee 20 72 3a 98 fa 50 3d ad 2f 8f be
       0.11158784 0.0009236474 0.051020235 -0.2796606
000090 03 9f a7 bc a2 4c 3c be 72 12 3f be d5 f0 2e be
       -0.020461565 -0.18388608 -0.1865938 -0.17084058
0000a0 9c 40 4f bd a2 bc 91 3e a5 35 15 be 18 4f 0d 3e
       -0.050598726 0.28464228 -0.14571245 0.13799703
0000b0 3e 12 eb 3d 1c 0b 60 3c fd bd c0 3d c6 79 df bc
       0.11478089 0.013674524 0.094112374 -0.027279746
0000c0 da 87 26 3c c5 1a dd be 61 28 54 bc 30 31 80 bc
       0.0101642255 -0.43184486 -0.01294908 -0.015648454
0000d0 b2 8c af bd 07 8a 88 bd ee c0 36 3c 5b 31 35 3e
       -0.085717574 -0.066669516 0.011154396 0.17694609
0000e0 52 18 86 3d 99 cd 9e bd 79 af f8 3d 4f 7e 21 3e
       0.065476075 -0.077540584 0.12142844 0.15770839
0000f0 93 6b 9a bc b1 65 a1 be c1 d7 2c 3e f4 65 4e be
       -0.018850124 -0.31522897 0.16879179 -0.2015608
000100 09 fe 8b 3d 0c 6e f8 bd b7 75 e9 bd 3c 89 33 3e
       0.06835563 -0.12130365 -0.113994054 0.1753282
000110 83 57 11 be f6 da 4c 3e b0 97 23 3d ba f2 8a be
       -0.1419354 0.20005402 0.039939582 -0.2713831
000120 59 ec a0 3d cf a9 16 3e d4 9e 76 bd bd 4e 53 bb
       0.0785758 0.14713214 -0.060210064 -0.0032242977
000130 08 cf 47 bc 2c 53 a9 3c fe df 0a 3e 8b 31 94 3d
       -0.012195356 0.020669542 0.13562009 0.07236012
000140 41 8c 8d 3d f9 99 13 3d 03 2b d1 3d bd 0e ac bc
       0.06911517 0.03603551 0.10213282 -0.021003122
000150 75 cd 85 3d da 52 0d 3e dd 06 73 3e ee 2a af be
       0.065333284 0.13801137 0.23733087 -0.3421244
000160 1c 9f 54 3d 91 6b 81 be fe 94 fe 3d e1 09 3e 3e
       0.05190955 -0.2527738 0.12430762 0.18558456
000170 dd c4 59 bc 78 eb b7 3e 78 ab c5 3d 89 af 56 be
       -0.013291565 0.35921836 0.09651846 -0.20965399
000180 00 fc b3 3c 0b e9 37 3e 14 e7 f4 3d 44 d4 48 3e
       0.021970749 0.17959993 0.11958137 0.19612223
000190 1f 0c 12 be d4 a7 6e 3d ea b1 a0 be e8 7a 7f 3d
       -0.14262436 0.058265522 -0.31385738 0.062373072
0001a0 89 96 09 3e 22 c3 41 bd 16 7d 9e bd 12 31 4d be
       0.13436331 -0.047305234 -0.07738702 -0.2003825
0001b0 42 73 9d 3e 0b 7f 16 be e1 19 59 3d 51 13 2b 3d
       0.30751997 -0.146969 0.053003196 0.04176647
0001c0 43 6d 11 3e 90 2b 79 3c 8e 12 4f 3e 55 57 2f be
       0.14201836 0.01520814 0.20221922 -0.17123158
0001d0 ba ea 49 3c e3 e3 b8 bc 38 1f 58 bd e9 b8 29 3e
       0.01232403 -0.022569602 -0.052764148 0.16574444
0001e0 59 bb b3 3c c3 3f ab be 7e 32 21 be 6a d1 44 3c
       0.02193992 -0.33447084 -0.15741917 0.012012819
0001f0 84 60 07 3e 75 d0 2f 3d 6d ee 63 3d 94 bd a3 3d
       0.13220412 0.04292341 0.055647302 0.079951435
000200 5b 91 37 3d 74 ca a4 bd 88 5f 8c 3e 1c dd bf 3d
       0.044816356 -0.08046427 0.27416635 0.09368345
000210 14 c0 b8 bd 3f b0 d8 3b 31 95 03 3d bc f9 dc 3d
       -0.09021011 0.006612807 0.032124702 0.107898206
000220 04 5d 0b 3e df a6 6b bc 36 d3 80 3d 90 ba 5d be
       0.13609701 -0.014383047 0.06290285 -0.21653199
000230 dd 95 92 be 60 79 2f be ea e1 aa 3d 02 32 d5 bd
       -0.28629962 -0.17136145 0.08343871 -0.10409929
000240 7a 60 f4 3d 9c 90 ab 3d ce 7a 28 3e 25 df 7b bd
       0.11932464 0.083771914 0.16453096 -0.061492104
000250 ce 67 5f bd 02 f3 5e be d2 02 78 bd 38 6a 92 be
       -0.054542355 -0.21772388 -0.060549565 -0.28596663
000260 49 e1 3b 3d ee 87 da be 4a c0 21 bd b3 5d d6 3d
       0.045869146 -0.4268183 -0.03949002 0.104670905
000270 79 c9 83 bd 8d d7 09 3e 96 a1 53 3e 48 d2 70 3d
       -0.06434912 0.13461132 0.20667109 0.05879429
000280 e3 6b 93 3e 95 a0 56 be 0f c3 bd bc db 7c b5 3c
       0.2879325 -0.20959695 -0.0231643 0.022154262
000290 4b a2 f9 3d 08 c4 5d bb a8 07 59 be 75 5e 50 bd
       0.12189158 -0.0033838768 -0.21194327 -0.05087133
0002a0 0b ad 44 3d 74 e0 cd bd a1 e2 d2 bd e3 e0 9d bc
       0.04801659 -0.10052577 -0.10297132 -0.019272273
0002b0 4e 56 9b be e4 ad 0c 3e c8 41 61 3d a9 bf a1 bc
       -0.30339283 0.13738209 0.054994375 -0.019744711
0002c0 b0 6f 9f 3c 3c eb b9 bd 32 05 1c 3d f1 ed ce be
       0.019462436 -0.090780705 0.038090892 -0.4041591
0002d0 0a d2 e8 3b 15 2f 0c bd e5 9a 79 3d 4a 27 50 be
       0.0071051167 -0.03422459 0.060938735 -0.20327488
0002e0 54 98 80 3d 81 dc b9 3d 45 72 4b be 05 80 24 3e
       0.06279054 0.09075261 -0.19867809 0.1606446
0002f0 00 75 15 3e a5 7b 00 be 44 f5 26 bd d3 30 32 3e
       0.14595413 -0.12547167 -0.040761247 0.17401437
000300 67 18 cf bc 8e f0 24 3e 48 3b 12 3e 55 10 a6 bd
       -0.02528019 0.1610739 0.14280427 -0.08108584
000310 e7 1d 41 bc 28 43 cd 3d e2 a9 a6 3d 2f b8 37 3e
       -0.011786914 0.10022575 0.08137871 0.17941354
000320 94 bf 90 be 3f 22 b0 bd e7 a0 94 3d 44 87 02 3e
       -0.28271163 -0.08600282 0.07257252 0.12746912
000330 40 81 7b be 14 28 ba 3e b9 96 19 3e 0a c3 78 bc
       -0.24561024 0.36358702 0.14998902 -0.01518322
000340 9c 83 01 3e 3a d2 74 be 89 34 36 be b9 a0 c0 3d
       0.12647861 -0.2390832 -0.17793478 0.094056554
000350 43 51 2f be 34 96 f8 bd 76 13 80 3e 1f 1e 9b be
       -0.17120843 -0.12138024 0.25014848 -0.30296418
000360 a7 09 09 3e c3 27 6c 3e fc f1 f6 bd b6 d6 18 3c
       0.13382588 0.23062043 -0.120578736 0.009328535
000370 96 3d a5 be 11 ba 0c 3e 4c 2e 47 bd 02 28 cc bc
       -0.3227355 0.13742854 -0.048628137 -0.024921421
000380 96 62 d0 bd be 1c 3e 3d c9 20 37 3e ba 75 22 bf
       -0.10175054 0.04641413 0.178836 -0.63460886
000390 30 6a 24 be e7 94 2c bb 5d e0 c5 3c 2c 7d a3 3e
       -0.16056132 -0.002633387 0.024154836 0.31931436
0003a0 ef 2a e4 be 86 dc 63 bd e3 32 dc bd f6 c8 4e 3d
       -0.44564006 -0.05563023 -0.10751893 0.05048462
0003b0 bb b5 d9 3e d0 dc 1f 3e 89 6b 3a be 99 f2 71 bd
       0.42521462 0.15611577 -0.18205084 -0.05906925
0003c0 f6 e9 a5 bd 13 68 45 be 48 2b 03 bd b1 32 b3 3d
       -0.08101265 -0.19277982 -0.032023698 0.08749903
0003d0 c0 8f 70 bd ad 48 18 3e 66 b0 8f bd 98 6c b5 3d
       -0.05873084 0.14871474 -0.07016067 0.08858603
0003e0 87 ad 06 3e fe 3e b3 bc 1d 53 db 3d a8 ee 10 3e
       0.13152133 -0.021880623 0.10709212 0.1415354
0003f0 db 98 1e be 38 f7 a6 3d d1 c7 16 be 10 34 21 bd
       -0.15487997 0.08152622 -0.14724661 -0.03935629

l2.bias f4 [64]
000000 ff 24 9a bc ce 9f 16 3d 61 fb d3 3d 91 a2 75 3e
       -0.01881647 0.036773495 0.10350681 0.23987795
000010 32 02 b0 3d 09 bb db 3a c2 56 85 3e 5d af 11 3e
       0.08594169 0.0016764115 0.26042753 0.14227052
000020 20 5b 66 3e e5 28 85 bd f0 45 8b 3c 7e 2b 57 bd
       0.22495699 -0.06501941 0.017001122 -0.05253171
000030 c7 69 35 3c 41 99 4b 3e 65 47 8e bd 5a c1 26 be
       0.011072583 0.1988268 -0.06947211 -0.16284695
000040 c7 39 33 bd d4 c9 c8 3d 53 2e 6f bd de 12 33 3e
       -0.043756273 0.09804121 -0.058393788 0.17487666
000050 62 93 92 bb 87 e5 0c be 9a 19 03 3e e3 d3 f9 3b
       -0.004473136 -0.13759433 0.12802735 0.007624136
000060 c2 26 cc bd 06 80 a9 3d 4f 36 23 3e 60 da 61 3d
       -0.0996833 0.08276372 0.15938686 0.0551399
000070 b9 15 d1 bd c4 99 04 3e 1c 29 44 3d 25 c6 91 3d
       -0.102092214 0.12949282 0.047890767 0.07117871
000080 70 9d a3 3d f4 d4 79 bd 48 c4 02 3e 21 59 c8 3d
       0.07989013 -0.060994104 0.12770188 0.09782625
000090 fc a6 eb 3d 35 11 a7 bc 8d 70 23 bd 84 e5 95 3c
       0.11506459 -0.020393947 -0.03990226 0.018297918
0000a0 1c 74 03 be 4f 9a f2 3d 4e 5e 8c 3c e3 09 cb bc
       -0.12837261 0.11845838 0.017134812 -0.024784988
0000b0 53 04 73 3e 65 e1 0e 3e 41 c8 39 bd 8b d2 16 3e
       0.23732118 0.13953169 -0.045356993 0.14728753
0000c0 1c 83 48 3e 43 e8 a5 3d 7b b7 96 bc 60 56 67 3c
       0.19581264 0.08100941 -0.018398037 0.0141197145
0000d0 12 21 64 3d 14 64 1c 3e 15 64 79 3d 52 e2 11 3e
       0.0556956 0.15272552 0.06088646 0.1424649
0000e0 92 d4 ce 3d 7e 73 bb bc 84 5d 89 3c 98 00 45 bd
       0.10099138 -0.02288222 0.016768225 -0.04809627
0000f0 ed 7f 42 3e b8 a6 9f 3d 05 a2 55 3d b0 3a d8 bd
       0.18994112 0.07795471 0.052156467 -0.10558069

l5.weight f4 [10, 64]
000000 95 32 92 3e 24 da 04 bd c0 c2 e9 be e4 cb a1 bd
       0.28554216 -0.032434598 -0.45656395 -0.07900217
000010 11 10 c5 bc 17 b3 aa 3d 5f 03 a4 be c7 44 11 3e
       -0.024055513 0.0833494 -0.32033822 0.14186393
000020 76 e1 38 3e 8b 32 ba bd 89 86 f5 bd 0d 6f f0 3e
       0.18054757 -0.090916716 -0.11988551 0.46959725
000030 ce 48 b7 be ca 99 89 3e 4e 4b 94 3e ce f1 27 3e
       -0.35797733 0.26875144 0.28963703 0.16400835
000040 8f 54 1c be 57 5b 69 be 13 cb bf 3e 37 51 91 3c
       -0.15266632 -0.2278875 0.3745962 0.017738922
000050 4f ab 94 3e b8 21 5d be 16 8c c4 3d 2f 38 fd 3a
       0.29036948 -0.21594894 0.09597032 0.0019319112
000060 a4 e0 13 bd ce 35 4f 3d 40 9a 89 3e cb 5b 11 3e
       -0.036102906 0.05058842 0.26875496 0.14195172
000070 39 c1 d7 bc c5 d1 89 be 48 3f 04 3e db f7 82 be
       -0.026337253 -0.26917854 0.12914765 -0.25579724
000080 6c 4e 04 3e 0f 90 5e 3e 21 be 43 be 33 3f eb be
       0.1292054 0.21734641 -0.19115497 -0.45946655
000090 47 04 9a be 04 0d 3d be 92 05 a1 3d 61 29 16 3e
       -0.30081388 -0.18461996 0.078623906 0.14664222
0000a0 70 60 7f 3e ff e6 0b bd 62 89 73 3e 64 03 57 3e
       0.24939132 -0.034155842 0.23782876 0.20997387
0000b0 87 54 d5 bd 11 56 92 be 47 5c 7b bd de 9d da be
       -0.10416513 -0.28581288 -0.0613673 -0.42698568
0000c0 09 03 44 3d 16 32 f5 be 30 1f ad be db 8b 86 3e
       0.047854457 -0.47889775 -0.33812857 0.26278576
0000d0 af 5a 06 3d a4 b7 02 be 68 53 58 bc 43 f0 99 be
       0.032801326 -0.12765366 -0.013203479 -0.30066118
0000e0 d3 a1 39 be 92 4b c8 3e e4 93 09 3d eb 93 13 be
       -0.18128137 0.39120156 0.033588305 -0.14411895
0000f0 8a e8 fe 3d 97 97 af be 2b 26 5d bd 6e 1d 5d 3e
       0.12446697 -0.3429534 -0.053991478 0.21593258
000100 f1 42 6c bd 27 99 1e bf b6 07 2d 3e 54 3f f3 bd
       -0.057681028 -0.6195244 0.16897473 -0.11877313
000110 7d 3d cc be bd 97 9f 3d ef da 02 be 61 80 bd be
       -0.39890662 0.07792614 -0.12778829 -0.37012008
000120 41 ec 4a be ab 2b 9b 3e d0 ad 29 3e 2e 9c db 3e
       -0.19816686 0.30306754 0.1657021 0.42892593
000130 ec f6 96 3e 63 ee 84 be 3f 9a d6 be e9 57 5a be
       0.2948526 -0.25963125 -0.41914555 -0.21322598
000140 ec 62 45 be c1 0b 56 be c6 2a e8 bd 93 c5 3c 3c
       -0.19276017 -0.20902921 -0.113362834 0.011521715
000150 c9 cf 41 be 66 a7 fd 3d 6b 1a cf be 5c 4d 96 3e
       -0.1892692 0.12385444 -0.40449843 0.29355896
000160 e9 7d 64 3e 19 6e a2 be ab e3 4d be db db 7c 3d
       0.22313656 -0.31724623 -0.2010638 0.061733108
000170 6c bf 6b 3e 42 89 21 3e 94 a1 9a be f2 cb 40 3d
       0.2302224 0.15775016 -0.302014 0.047069497
000180 7b 08 d8 be 22 83 0c be 35 44 7f 3d c5 91 50 3e
       -0.4219397 -0.13721898 0.062320907 0.20368107
000190 8a 1a 4c 3e 79 c8 73 3e 14 c2 c7 bd c4 0c 31 be
       0.19931999 0.23806943 -0.09753814 -0.17290026
0001a0 1d 6b 39 3e 33 03 f3 3c 5f db c3 be 20 5d e2 be
       0.18107267 0.029664611 -0.38253304 -0.44211674
0001b0 71 61 eb be 27 49 79 be 8e 38 b6 bd ea ea 57 be
       -0.4597278 -0.24344312 -0.08897506 -0.21085706
0001c0 7b 6c 6c 3e a8 2c 55 3e d3 07 01 bc 97 78 49 bd
       0.23088257 0.20817816 -0.007875401 -0.04918727
0001d0 e5 9f a1 be 09 6d 82 be 09 76 05 bf f1 96 1c 3e
       -0.31567302 -0.25473812 -0.5213323 0.15291955
0001e0 c5 2d 55 be da ec 70 be 29 46 3d 3c 10 d6 89 3e
       -0.20818241 -0.23527852 0.011552372 0.2692113
0001f0 70 5c b1 be b3 cb ae bd 47 a8 0f 3e e6 88 83 be
       -0.34640837 -0.08534946 0.14029036 -0.25690383
000200 84 d8 cf 3c 4f 08 b7 3e 3c ef 80 3e 28 ed 8d be
       0.025371797 0.35748526 0.2518252 -0.27719998
000210 1c a6 17 3e c9 ac ef bd 04 9e 97 be 4c 2e 07 be
       0.1480946 -0.11702878 -0.29612744 -0.13201255
000220 6e 6e 4f be 33 e3 56 3e 53 79 53 be fe af b6 be
       -0.2025697 0.20985107 -0.2065175 -0.35681146
000230 8d a1 ed 3d a5 ee 55 3e 68 56 2f be de 59 66 3e
       0.11603079 0.20891817 -0.17122805 0.22495219
000240 c0 dd d3 3d a4 1d 08 be cb 80 44 3e f0 fe a0 bd
       0.1034503 -0.13292557 0.19189756 -0.078611255
000250 a2 6d 47 be 40 fa 60 be 16 08 9f 3d 11 0d c0 bd
       -0.19475415 -0.21970463 0.07765214 -0.09377492
000260 23 75 9e be b2 ed 51 3e 9d 64 92 be 1a 74 b4 3d
       -0.30948743 0.2050083 -0.28592387 0.08811207
000270 ab 2d 69 3e 61 09 b2 3d 7c 04 b6 3e 45 4e 81 3e
       0.22771327 0.08693195 0.35550296 0.25255027
000280 fa 73 66 3c dc 7b 8b be e0 1e 00 be a2 37 6f be
       0.014065737 -0.27242935 -0.12511778 -0.23361066
000290 55 57 30 3d 19 85 75 bd 71 8f d7 3c cf dc 27 be
       0.043052036 -0.059941385 0.026313515 -0.16392826
0002a0 10 1c a2 3e fd a8 5f be 7b a3 92 be fc 0a a0 3e
       0.31662035 -0.21841808 -0.2864035 0.3125838
0002b0 c4 6d 31 be cf e1 f6 be 2e 12 b5 3d eb 80 04 bf
       -0.17327029 -0.48219153 0.08841358 -0.51759213
0002c0 9d 7f 35 bb 5d ba db 3d 41 9a 91 3e 73 02 ee 3e
       -0.0027694472 0.10728905 0.28438 0.46486244
0002d0 02 cd 07 be b1 7d ad be d8 c4 37 be d7 25 c3 be
       -0.13261798 -0.33884957 -0.17946184 -0.38114807
0002e0 25 71 aa 3d 1d 5c 67 bd dc 94 64 bd 56 da 35 3d
       0.08322362 -0.05648433 -0.055806026 0.044397675
0002f0 0c 04 4f 3e c5 14 6a 3e 07 7e 33 be 70 21 0a bd
       0.20216388 0.22859485 -0.17528544 -0.033723295
000300 21 84 16 bd 05 f0 85 bc 54 44 ba be 40 55 d4 be
       -0.0367471 -0.016349802 -0.36380255 -0.4147129
000310 70 c8 40 3e 81 a0 8d be cc 6e 17 be eb d0 56 bd
       0.18826461 -0.27661517 -0.1478836 -0.052445333
000320 ce d4 d9 bd 9d 3e 8d 3e 7d 2f 9c 3e a9 3c 91 be
       -0.106362924 0.27586833 0.3050498 -0.28366593
000330 dd 0e 08 3e bd 1c 1c bc 4e ec 21 be f2 4c 39 3e
       0.1328692 -0.009528336 -0.158128 0.18095759
000340 11 12 43 3e 3a 34 35 3e 8b f6 3b 3d 91 53 3b 3e
       0.1904986 0.17695704 0.04588942 0.18293597
000350 ae 54 bc bd 4f cf 8b 3e fe a2 43 be 2b 72 0c bf
       -0.09195839 0.273066 -0.19105145 -0.54861706
000360 16 1a 28 bd d0 57 db be a0 42 96 be af 4c 9e be
       -0.041040502 -0.42840433 -0.29347706 -0.3091788
000370 9d e5 2a 3d 87 ad ee bd d5 02 ac bd 1e 06 4b be
       0.041722883 -0.116541915 -0.08398978 -0.19826552
000380 79 db 78 3e f6 8c ab ba 78 e6 f3 be dc 79 99 bd
       0.24302472 -0.0013088274 -0.4763677 -0.07493946
000390 78 08 75 be 3d d7 8c 3e 36 14 84 bd a0 96 67 bc
       -0.23929012 0.27507964 -0.064491674 -0.014135033
0003a0 42 dd 88 3e b8 88 16 be 01 1e 4d 3e a7 bb 3c bd
       0.26731306 -0.14700592 0.20030977 -0.046077397
0003b0 f7 48 19 bf e7 e7 3d 3e f5 dd f2 bd ff 3f 7b be
       -0.5987696 0.18545495 -0.11858741 -0.24536131
0003c0 8f 96 01 be 9e b6 d6 bd 4d 1c c3 3d e6 7c b4 be
       -0.1265509 -0.1048405 0.09526882 -0.3525154
0003d0 06 0f 7a 3d 28 a1 70 3e 84 5e a5 3e af cb 00 be
       0.061049484 0.23498976 0.32298672 -0.12577699
0003e0 8f e0 53 bd 97 60 b2 ba d7 a1 8a 3e ce 2e eb be
       -0.051727828 -0.0013609108 0.270766 -0.45934147
0003f0 0e 1f 1e be 0f 7f 2e 3e 8b 5f 87 3d 21 3f 22 be
       -0.15441534 0.17040657 0.0661002 -0.15844394

l5.bias f4 [10]
000000 9c 7f 18 be a6 18 f5 bd de fc 32 be c2 f3 76 bd
       -0.14892429 -0.11967592 -0.17479274 -0.06029106
000010 07 27 38 3e eb 47 b5 3d 2b 4a bf 3d f9 99 3b be
       0.17983638 0.08851608 0.09340318 -0.18320455
000020 48 5f 46 3e a4 50 76 3d
       0.19372284 0.0601355
