CNNmodel.pth (torch, 61558 bytes, 16 tensors)

c1.weight f4 [16, 1, 3, 3]
00000000: 01d2 5d3e d54e f83d c5fb bbbe 717a 4c3e
00000010: cfef 603e c0d6 d2be 6485 c93e f9de 61be
00000020: 765c 56be 3947 863e 0d80 5e3c 007c b73d
00000030: a9d9 123f e43e 4b3e 1fd5 c03e b8a8 33be
00000040: 6d8a 4cbe 2f4f f9be 8652 423c a5ef adbe
00000050: 8f99 b7be f890 f7be 899e 913c 88e9 60bc
00000060: 0c6f 76bd 7e07 963e 8021 843e 797a 933d
00000070: 4cb2 763e 32ef 7c3d eeba 813c 144d 873e
00000080: 4c58 f53e c749 0bbf d604 babe d021 b5bd
00000090: 226a d9be c75a dfbe efb6 c9be 587d b43d
000000a0: 80f8 8a3e a48a d2bd 6153 c13e f07f 273e
000000b0: be40 543e 6846 87bd 3c52 42be 615b 0bbe
000000c0: b25f babb f808 c7bd 0975 cc3e 32c9 c23e
000000d0: c054 ee3d 24a0 123f 8c00 05bd 436a 143e
000000e0: 0e78 ac3d 9a83 e03e 57df b53e 93bb e83e
000000f0: 3b4b 28bc 3a6f 873e 07e0 923e b7d3 303e
00000100: 9ffb e8bd fbea a3be 6c60 763e f9ab 1ebf
00000110: dfd6 963e d8c7 efbe 5c38 b63b a93c 373d
00000120: 224a 653e f74a d83e 9704 b53e eea1 83be
00000130: a82e 823c b378 8dbd 0531 d0be 82d6 98be
00000140: 8f1d adbe d050 dbbe 03ac ccbd f111 14be
00000150: fafd ccbd 42ef 913e b404 c03e be74 b03d
00000160: a623 dd3d a4d2 a23e 57b9 e83e c30d 27be
00000170: 1ab4 85be 6bac 463e 694f f6bd c89c c2bd
00000180: 094c 013e 924f a53e 5448 c03d 880f a93e
00000190: af54 f83d df58 863e dd4f 293f f0c1 d53e
000001a0: 5150 aa3e 81b6 263d 4919 923d 2fc1 50bd
000001b0: c25c a73c 02ba f33e 8f1e 20be ade7 85bd
000001c0: 390a 0a3e 7795 a8bd 5f58 2e3e a9f7 3e3e
000001d0: 8df8 a13e a25d 76be dcc4 66bd 352b a93e
000001e0: c063 13be 0b7b af3e fb2c 7cbd 29d2 6b3e
000001f0: d2c1 2d3e 5176 5fbe 6a87 a0be 69db fbbe
00000200: e099 b43d 29b7 c43d 6c7e 29bc a3ab 04bf
00000210: 19b2 343e 25f1 2e3e b1e1 0cbe 2784 1a3c
00000220: 2a19 0e3e 5347 a03d 6858 493e badd e83e
00000230: 0154 ce3e ed9e 48bd 8d62 cc3e f8d7 e33d
0.21662141 0.12124411 -0.36715522 0.19968583 0.2196648 -0.41179466 0.3935958 -0.22057714
-0.20933709 0.26226214 0.013580334 0.08959198 0.57363373 0.1984821 0.37662598 -0.1754483
-0.1997468 -0.48693225 0.011860495 -0.33971897 -0.35859343 -0.4835279 0.01777579 -0.013727553
-0.060164496 0.2930259 0.25806808 0.07201094 0.24091452 0.061751552 0.015836205 0.26425993
0.47918928 -0.5440945 -0.36331815 -0.0884434 -0.42463785 -0.43623945 -0.3939738 0.0881297
0.27142715 -0.1028035 0.37758926 0.16357398 0.20727822 -0.06605226 -0.18976682 -0.13609077
-0.0056876773 -0.097185075 0.3993304 0.38044125 0.116372585 0.57275605 -0.032471225 0.1449366
0.08421336 0.43850404 0.35521957 0.45455608 -0.010271843 0.26452047 0.28686544 0.17268263
-0.11376118 -0.32015213 0.2406022 -0.6198116 0.2946081 -0.46832156 0.005560918 0.044735584
0.2239156 0.42244694 0.35355064 -0.2570948 0.015891388 -0.06907787 -0.406624 -0.29851156
-0.33811614 -0.42835093 -0.09993746 -0.14459969 -0.1000938 0.28502852 0.37503588 0.08616017
0.10797815 0.3180133 0.45453903 -0.16313843 -0.2611397 0.1940171 -0.12026865 -0.0950256
0.12626661 0.3228727 0.093887955 0.33019662 0.12125527 0.26239678 0.66137487 0.41749525
0.33264402 0.040701393 0.07133729 -0.050965484 0.020429973 0.4760285 -0.15636657 -0.06538329
0.13480462 -0.08231633 0.17025898 0.18649162 0.31634942 -0.24059156 -0.056340083 0.33040777
-0.1439352 0.34273562 -0.061566334 0.23029388 0.16968468 -0.21822478 -0.31353313 -0.49190834
0.08818412 0.096052475 -0.010345083 -0.51824397 0.17646064 0.17084177 -0.1375797 0.009430922
0.13876787 0.07826104 0.1966263 0.45481664 0.40298465 -0.04897969 0.39918938 0.11125177

c1.bias f4 [16]
00000000: 080a 1ebe 394e 143d 156d 4e3d b3ea 373c
00000010: 5dd9 4e3d 4347 8e3e ebf6 af3d 0005 f33d
00000020: 05c1 183d de34 863d 5d4b d5be cd6a 693e
00000030: 5cb2 00bf 2e3c a4be cd33 183e ddd3 1c3e
-0.15433514 0.03620741 0.050396997 0.01122539 0.050500263 0.27788743 0.08592018 0.11866188
0.037293453 0.06553052 -0.4165906 0.22794648 -0.50272155 -0.32077163 0.1486351 0.15315194

b1.weight f4 [16]
00000000: e123 4f3f f20a 613f 4c1a 2d3f 354a 533f
00000010: bdca 4d3f 5655 4b3f 519b 573f 664f 2e3f
00000020: edd0 723f 32a0 503f 7f74 3d3f 938a 5a3f
00000030: 3f6c 543f 9a66 5f3f a3cb 2d3f 528c 573f
0.8091412 0.87907326 0.6761825 0.82535106 0.8038748 0.7942709 0.8422137 0.680899
0.94850045 0.8149444 0.74005884 0.853677 0.8297767 0.8726593 0.6788885 0.84198487

b1.bias f4 [16]
00000000: 4de3 253e 6587 813e 467a 553d e40c fb3d
00000010: ef21 9e3c c655 263e 63db 4d3e f4ec d53d
00000020: 0637 e33d 0845 363e 5cb8 e33d a6e1 823e
00000030: 0efc 1b3e 873e e93d ebae 7d3d 647d 8c3e
0.1619999 0.2529861 0.052118562 0.12258318 0.01930329 0.16243657 0.2010322 0.10445586
0.11094479 0.17799771 0.11119148 0.2556278 0.1523287 0.11388879 0.061934393 0.27439415

b1.running_mean f4 [16]
00000000: b877 d03c c50c ff3d 2d60 623d e7d8 623d
00000010: ff7d 9f3d 6790 c73e e4c7 a03e d40d cf3d
00000020: 3a8f 863d 4fc7 063e 7f9b 793c 116a f53e
00000030: 8e28 e43c 12b6 353c cb01 fc3d bef1 b43e
0.025447711 0.124536075 0.0552675 0.055382635 0.07787704 0.38977358 0.31402504 0.101100594
0.06570287 0.13161968 0.015234827 0.47932485 0.02785137 0.011090772 0.123050295 0.35340685

b1.running_var f4 [16]
00000000: 02f7 3e3c 5094 6e3d cf86 a53b 8d0b b63c
00000010: 850a 8e3c 36ce b53d c5f6 803e 6e13 4d3b
00000020: 6c84 8f3c f139 263d 2884 8a3b 707f 9e3e
00000030: 4aee 133c bf45 313b 2b1c 9d3b cd47 4f3e
0.011655571 0.05824691 0.005051471 0.022222305 0.017339 0.08877222 0.2518827 0.0031292099
0.017519198 0.0405826 0.00422718 0.30956602 0.0090289805 0.0027049629 0.0047946176 0.20242234

c2.weight f4 [32, 16, 3, 3]
00000000: a374 c5bc b774 c9bc 8ca9 efbe 321d d43d
00000010: 24a5 bb3d 6be1 06bd 93d5 f73d 0c37 403d
00000020: e644 393d 4970 e1be ddea 28be 5efc 043e
00000030: 270a 803e b092 923e 3b6d 2f3e eea3 e0bd
00000040: 2d91 613c 89d8 2ebd 7837 273e 9402 033f
00000050: 993c 283e 640b bb3d 1dbf d73c 2953 033d
00000060: 77de 2b3e 9e58 093e 4212 853e c7a2 9ebe
00000070: a976 b9be 677d 1d3e b2a3 623e 6ef1 873d
00000080: 8299 413e 9a02 6f3e 1be9 e53d a15d 0bbe
00000090: 4f15 df3d cdef cf3e 055f 843e ce0d b43d
000000a0: 5857 0fbe 2cf7 23be 16a9 86be b626 b43e
000000b0: 20f4 e63b 21a3 50bb efc0 c43e dab5 143e
000000c0: 2a25 7e3e ce28 fabb 026e 6bbd 8fe6 1e3d
000000d0: 21f3 cd3d 37ff 073d 3a4a 25be 0fb2 b83c
000000e0: ba0a d23d f6a4 823e 2938 273e f3d3 063d
000000f0: 8a1e f3bd 9837 2ebd a24e 8abd 0afb 183e
00000100: 85ff 0a3e 8b2a bdbe 6fef aebd 9992 ad3d
00000110: a63a 533e 02a1 c53d b226 69bd e402 ea3d
00000120: d11a 87bf 4196 30bf 47f0 d1bc 3795 7bbb
00000130: 1d4c 2b3e f7c7 243e cbf5 2b3e 9eb7 413e
00000140: 8111 4cbe d990 903d 5750 b23e 4284 c83d
00000150: 1a6a 153e 1006 d6bd 22a3 9abe b3aa e53d
00000160: be39 573d f6f5 ae3c 1202 47be 75a7 823d
00000170: 6e92 12be 12a7 fd3d 3666 79bd ff67 61be
00000180: d7d4 743e c0f8 a63d 15dd 1ebd d733 51be
00000190: b0ac 41be 9f8b 933d 89a0 883e 016b 7d3e
000001a0: 01fd ca3d 7af6 18bd 4652 acbc f735 05be
000001b0: ed6d 66be 17dc 49be 9f22 9cbc bfdc 123e
000001c0: b72a 043e d5e8 15be b360 30bd fd99 1fbe
000001d0: e6ef 35be f1b8 c43d 4d21 973d b6d1 b5bd
000001e0: f1d3 b1ba bf9d e23d 4c5b 1ebe 858f 1fbd
000001f0: 3619 85bc acad 853e a775 503e c002 b03b
00000200: 6b69 2e3e ab42 6dbe a21c d6be 6618 62be
00000210: e9b1 09be f7d4 acbc 2ddd 08be fabe 1bbe
00000220: 4f64 e9bc 6555 c73d 14f3 6d3e 25e5 253e
00000230: ca85 3abc f4be 88bb 4d11 93bc f4a2 9bbd
00000240: a41b 19bd 7cd2 ad3d 418a 173e 930e 6dbe
00000250: b286 39be 8533 7cbe 4ca3 d5bd 17d9 f4bd
00000260: c749 c6be 8a99 083d 20cb 2ebb 0ad4 2c3d
00000270: d814 c4bd e627 63bc db20 c6bd e920 353e
00000280: 2cbc 16be 2e4c e2bd 6129 c9bd bf93 733d
00000290: 5890 553e d7b3 ddbd ffa7 8fbe 8d33 ac3c
000002a0: b42e 8f3d 06f5 63be e5ce 12be 46b1 0d3e
000002b0: bf38 b03d 8b6c 5abd 17d1 d03d 0b19 053e
000002c0: 4031 5dbc 681d ca3d 9b67 95bc aba1 493e
000002d0: ce91 eebc 912e 973d 8c86 113e e4ea cabe
000002e0: 3e3b 9fbe 0b50 01be 3aa5 0f3e 721e 163d
000002f0: a98f 40bc a9ac 813d 37e5 2b3e 9c9e 7f3e
00000300: 0268 08bf fe3a 57bf 03cd 22bf 7c21 df3d
00000310: b78b 1d3d 5f60 2f3d f282 a23d 26b8 d83d
00000320: 9072 e43d c320 97be 9763 a8be 6643 b2be
00000330: 7f23 063e e08e 603d 88e8 cc3d e6c3 31be
00000340: ec1a bf3b d29b 1abc f482 f0bd 48ca e0bd
00000350: 5081 cebc 22ae 8dbd 8216 f83d b880 7fbd
00000360: f554 f93c 9a3a 4dbe 3a4d 7cbe 1080 7f3e
00000370: 21d5 f93c ac44 f43d 278c 463e 358a fdbe
00000380: fa81 4ebe 403b b03d 6a17 0a3e e50a 643e
00000390: d9ba 23bf 8076 52bf 211c 7bbf a74a 4bbc
000003a0: 642d 7c3c 9394 c63d 3423 4f3e 31ad d63d
000003b0: 6ded f13d f6d5 a6be 7df7 f1be ec9a c8be
000003c0: 2ac9 0dbd 5d51 9a3d e6b7 0d3e 1e15 e23d
000003d0: 58e7 7e3d e0d3 b33c 2297 0abe a63a b2bd
000003e0: b6bd 50be cc1d 233e c9db 9dbd 501c a93c
000003f0: 6413 b83d 918f c63d 2abe f43d f7bb 4bbe
-0.024103468 -0.024591787 -0.46809042 0.10357131 0.091623574 -0.03292982 0.12101283 0.046927497
0.045231722 -0.4403098 -0.16495843 0.12986895 0.25007746 0.2862754 0.17131512 -0.10968767
0.013767523 -0.042686973 0.16329753 0.5117581 0.16429366 0.09133032 0.026336247 0.03206173
0.16784082 0.13412711 0.25990492 -0.30983564 -0.36223343 0.15379868 0.22132757 0.06637846
0.18906215 0.23340836 0.11226102 -0.13609935 0.10892736 0.4061264 0.25853744 0.087916955
-0.13998163 -0.16012257 -0.26300877 0.35185784 0.007048145 -0.0031835514 0.38428447 0.14522496
0.24818864 -0.007634259 -0.05747796 0.038794097 0.10056139 0.033202376 -0.16141596 0.022545842
0.10255952 0.2551648 0.16330017 0.032916974 -0.11871059 -0.042533487 -0.06753279 0.14939514
0.13574035 -0.3694652 -0.08541762 0.08475227 0.20627841 0.096498504 -0.05692167 0.114263326
-1.0555059 -0.6897927 -0.025627268 -0.00383885 0.16728254 0.16091906 0.16792981 0.189177
-0.19928552 0.070588775 0.3482692 0.09790851 0.14591256 -0.10450375 -0.30202585 0.11214199
0.0525453 0.021357518 -0.19434384 0.06379596 -0.14313671 0.12385382 -0.06088849 -0.22012328
0.23909317 0.08152914 -0.03878506 -0.20429932 -0.18913531 0.07204365 0.2668498 0.2474785
0.09911538 -0.037344433 -0.021035325 -0.13008867 -0.22502871 -0.19712864 -0.019059477 0.1434202
0.1290692 -0.146396 -0.04306097 -0.15586086 -0.17767295 0.09605587 0.073793985 -0.0887789
-0.0013567192 0.11065244 -0.15464514 -0.03895523 -0.016247373 0.26109064 0.20357381 0.0053714216
0.17032401 -0.23169963 -0.4181872 -0.2207962 -0.13446774 -0.021097643 -0.13365622 -0.1520957
-0.028490214 0.097330846 0.23237258 0.16200693 -0.011384437 -0.004173154 -0.017952586 -0.0759944
-0.037379876 0.08487412 0.14798833 -0.23150091 -0.18117788 -0.24629028 -0.10431537 -0.11955469
-0.38728163 0.03334955 -0.0026671365 0.042194404 -0.09574288 -0.013864493 -0.096742354 0.17688335
-0.1472022 -0.11049686 -0.098223455 0.059467074 0.20855844 -0.10825317 -0.28057858 0.021020675
0.0699133 -0.22261438 -0.14336737 0.13837156 0.086045735 -0.05332617 0.10196131 0.12997834
-0.013500512 0.0986889 -0.01823788 0.19690578 -0.02912226 0.07381929 0.14211482 -0.39632332
-0.31099886 -0.1262819 0.14027873 0.03665013 -0.011753001 0.063317604 0.16786657 0.24962848
-0.53283703 -0.8407439 -0.63594073 0.108950585 0.03846332 0.042816516 0.07935132 0.105819985
0.111546636 -0.29517183 -0.3288848 -0.34817046 0.13099478 0.054823756 0.10005289 -0.17359886
0.0058320668 -0.0094365645 -0.11743727 -0.10976082 -0.025208145 -0.06917979 0.12113668 -0.062378615
0.030436018 -0.20041886 -0.24638835 0.24951196 0.030497136 0.119271606 0.19389401 -0.49519506
-0.2016677 0.08605051 0.13485494 0.22269781 -0.6395698 -0.82212067 -0.98089796 -0.012407935
0.015391681 0.09696307 0.20228273 0.104822524 0.118128635 -0.32585114 -0.4725913 -0.39180696
-0.034615673 0.0753505 0.13839683 0.11039184 0.062232345 0.021951616 -0.13534215 -0.087025926
-0.20384869 0.15929335 -0.07707936 0.020643383 0.089880735 0.09695352 0.119503334 -0.19895922

c2.bias f4 [32]
00000000: ecce 0fbe 3048 4dbe 649d 31bf bafe bdbf
00000010: 585e e6be 792a c6be 13ff 6fbf 433c f8be
00000020: cf7b b2bf 091b 36be 7161 a9bf 3966 afbf
00000030: 5538 973e 5a65 8bbe 88a0 8fbf 0958 16bf
00000040: 07f5 1abf ac8f 8abf a4aa 2fbd 79e7 b9bf
00000050: 5d0c 13bf ee66 8bbe 2f8d 1abe 7878 11bf
00000060: 0287 3b3e 95af a2bf 11dc 80bf 3a6d 37bf
00000070: 9cbb 84be 0848 ffbd b93b 66be fbb3 0b3e
-0.14043778 -0.20047069 -0.69380784 -1.4843361 -0.44993854 -0.3870428 -0.9374859 -0.48483476
-1.3944033 -0.1778375 -1.3232862 -1.3703071 0.29535165 -0.27225763 -1.1220865 -0.5872808
-0.6053013 -1.0825095 -0.042887345 -1.4523765 -0.5744074 -0.27226967 -0.1509292 -0.56824446
0.1831322 -1.2709833 -1.0067159 -0.7165104 -0.25924385 -0.12464911 -0.2248372 0.13642876

b2.weight f4 [32]
00000000: 78ff 833f d26b 7e3f ee8a 903f 9c3d 883f
00000010: 3c82 913f e0ed 9c3f c86f 903f fdec 963f
00000020: e376 893f 6f6c 833f e31c 8f3f f20f a43f
00000030: 323b 853f 1a63 8d3f a491 733f f2de 883f
00000040: 9d58 853f 9836 573f ec39 8a3f a808 773f
00000050: 2d16 9c3f 75a0 9b3f cd02 8d3f 556a 893f
00000060: b2cc a33f 6f93 7d3f 6770 973f d7eb 6c3f
00000070: 575b 8d3f feda a43f 4b70 603f 57a0 563f
1.0312338 0.9938327 1.1292398 1.0643802 1.1367869 1.2260094 1.1284113 1.1791073
1.0739406 1.0267466 1.118069 1.2817366 1.040869 1.1045868 0.95144105 1.0693038
1.0417668 0.8406768 1.0798926 0.96497583 1.2194268 1.2158343 1.101648 1.0735575
1.2796843 0.9905309 1.1831177 0.92547363 1.10435 1.2879331 0.87671345 0.8383841

b2.bias f4 [32]
00000000: e4aa b3be b902 8dbe 23eb 11be 7e45 c0be
00000010: 6d50 efbe ffc7 51be 4e84 3bbd 670d 09bf
00000020: fa74 9bbe 93aa 1cbf 2fd3 ffbe ed7c 57be
00000030: cc49 a4be 9462 b3be c12a 2bbe 543b 88be
00000040: 7784 3ebd 69fd f2be 2a30 abbe 2518 4dbe
00000050: bed5 a8be de32 43bd 20cb b1be 4d7e 1cbe
00000060: 64ad d2bd 0827 86be 0ec9 51be df5e 81be
00000070: f7ef e5bd 4c46 abbe 58ed cbbe d9d6 c6be
-0.35091317 -0.2754114 -0.14249854 -0.37553018 -0.46741048 -0.20486449 -0.045780472 -0.53536075
-0.30362684 -0.61197776 -0.49965808 -0.21043749 -0.32087553 -0.35036147 -0.16715528 -0.26607764
-0.046513047 -0.47458962 -0.33435184 -0.20028742 -0.32975572 -0.047655933 -0.34725285 -0.15282555
-0.10286978 -0.26201653 -0.20486853 -0.25267693 -0.1122741 -0.3345207 -0.39829516 -0.3883579

b2.running_mean f4 [32]
00000000: 1e6b 5f3f aaee 2b3f 5c86 c13e ac17 bc3e
00000010: ac7e 543f 43e1 3f3f 6ec5 a13e 2fb0 243f
00000020: b22a 4f3f 60a3 763f 2435 683f ab74 b23e
00000030: 1f35 b33f 9f23 403f 16bd 873e 1073 da3e
00000040: 5087 1a3e 5a56 223f 73ab ce3f 2ff8 093e
00000050: 8eeb 993f 2b9e 663f 5257 383f 9dde bb3e
00000060: b65b 853f b485 2a3e ff7f 253e 91e4 813e
00000070: 8c04 5d3f c036 b73f 34e1 593f 35ae 323f
0.8727282 0.6716105 0.3779782 0.3673681 0.83005786 0.749531 0.3159594 0.64331335
0.8092452 0.9634304 0.90706086 0.34854636 1.4000586 0.75054353 0.2651145 0.4266591
0.1509068 0.6341301 1.6146072 0.13473581 1.202501 0.90085095 0.7200824 0.36693278
1.0418613 0.16652566 0.16162108 0.25369695 0.86335063 1.4313583 0.8510926 0.6979707

b2.running_var f4 [32]
00000000: 370c e040 8f76 8c3f 2bb2 c03f 2d60 fa3f
00000010: f456 1740 2f3a 5f40 2b0d 0640 715b 403f
00000020: 901c b240 96cd 743f a03e d640 8979 0a40
00000030: da67 2741 3f58 9a3f 5228 a63f 8a06 eb3f
00000040: a742 653f 6f99 6b40 ace3 2441 0e55 223f
00000050: 9f5e 0b41 23cc bc40 cdb7 8240 cd92 8a3f
00000060: 02cb be40 8332 0b3f ce32 223f 63e6 823f
00000070: 59be dc40 41bb 5741 84cb 0540 f86d 5f40
7.001491 1.0973681 1.5054373 1.95606 2.3646822 3.4879262 2.0945537 0.7513953
5.5659866 0.956262 6.6951447 2.163668 10.462854 1.205818 1.2981055 1.836137
0.8955483 3.6812398 10.305584 0.63411033 8.710601 5.899919 4.0849366 1.082605
5.962281 0.5437395 0.6335877 1.0226558 6.898236 13.483216 2.0905466 3.491087

l1.weight f4 [64, 128]
00000000: e152 aa3e 9ca2 b33d c9f8 933d 1b67 e0bd
00000010: fadc a6bd 291a 2e3e 7fd7 d23d 5fc3 343d
00000020: d92f cbbd c6a6 4c3e f71d 293e 616c 2a3e
00000030: 9491 44be 195b 013e ed41 e83e bcc8 05be
00000040: d163 a93e 6a46 6cbe f7ea 80bd 45b3 13bb
00000050: ad10 273e 4c97 f8bd 267f 5cbe 17f6 dbbe
00000060: d6ff ca3d 604e f7bd 5a8f 4f3e 95b5 b8bd
00000070: 7252 f2bc cb49 493d f36b d2be 3602 22be
00000080: 5a9c aebe 92cb b0bd d882 c53d 0a62 13be
00000090: 8018 c7bd 2358 c8bd 2b30 bbbd eb09 943d
000000a0: de4b 2bbd c408 9ebe 7cd1 563e 8926 2b3d
000000b0: ba3e 0e3c e87c 85bd d8d8 2dbe 6c41 8c3d
000000c0: d679 803e 1d94 fa3d f008 383d a401 18be
000000d0: 405c 2fbe bf60 4bbe f558 5e3c 56d1 3cbb
000000e0: ae93 853e ae76 e43d 5e0e 93be 8984 243e
000000f0: 23a6 b83e e602 e33d b9a5 ed3b 36a8 8dbe
00000100: 2a14 2bbe 058c 113e a32a 3cbd 43c2 80be
00000110: 25d2 a23d 2036 7f3c b637 a93e eb4c d5bd
00000120: 8cd7 b9bd 4264 043e 002a c13e a813 953d
00000130: 50b2 f0bd 04ea 803d d8c8 a43e 7281 3bbe
00000140: c29d a93d 505e 14bc 3ffe 79be e74a 0cbe
00000150: cec5 0cbe eded 7dbe d3e2 483d df93 893d
00000160: 063e 383c dfc6 003d c6df 40be 6d30 45be
00000170: 3908 3d3e efaa 33be f4a4 1abf 24cb 78bd
00000180: 9162 623e 893f 043e 53c7 9dbe 1a27 033e
00000190: 3854 b8be 99eb 81be 0327 a63d c8c8 243e
000001a0: d54b 5cbf d9c4 4d3e be36 633c 37c6 a3be
000001b0: 36f6 3abe 488c 623c ad95 5cbd fd19 2dbe
000001c0: b15b 6dbd f8c7 063d ec10 6dbe c2d5 a23e
000001d0: 5b6a 9fbe 3f2e f9bd e075 953d c822 b5bd
000001e0: e91f a63c 96db 2bbe 6143 98bc aa37 833e
000001f0: 8009 983e 0f1d b13d a2da 283e 11bc 0cbe
00000200: e6f3 b3be f87c a3bc 981d 53be 27dd 3fbd
00000210: d107 4abd 0bf6 08be 5e3c e6be ee2c 70be
00000220: 6190 9b3e 3386 eebb c8e2 ac3d 81c5 58bf
00000230: 3f04 583e 906e efbd 3f4c 85bd 6fcc 943e
00000240: 7859 74bf 4b26 623b 8053 d6bd 3009 6f3d
00000250: 7257 1abe 11bc 903e 2a57 04be f99d 7e3d
00000260: 17d5 e33c 730e a23d b6a5 da3e b855 87bd
00000270: 8feb 833e 33e7 c3be af57 2fbe bcba 5d3e
00000280: a42b d73e 3c00 5dbe 7e19 b83d 23f2 fd3c
00000290: 6a8c d8bd 97e7 993e b84a 9cbe 2a3d 1b3e
000002a0: 3e48 dabe ac71 a03e f784 093d 8aff 6f3e
000002b0: ca3c f6bd 6f37 483e 9424 813e 4c86 2b3d
000002c0: 3c17 39be b19f b5bc 6bff 4f3e d7c3 e3bd
000002d0: 83fa 363d 1643 c7bd dea5 bd3d 4efb 90bd
000002e0: 51f1 2cbf 6a5c 32be 23e1 b83c 7163 9abd
000002f0: 96b3 31be 6a2b 5cbe 0212 90bd c2fb 3b3d
00000300: 4e28 3abe fccc 983e 2135 8e3c 6f23 e0bd
00000310: 659a 1abe 4b59 913c 54bd 1cbe 7d36 93be
00000320: 4a95 243e dc3e 71bb 5353 983d 58e0 34be
00000330: 74d7 513d a568 2c3d 2880 303d 11ec cc3d
00000340: a381 bcbe e1f9 0d3e 3f3f 43be 812c cf3d
00000350: c5d3 04bd fe64 8f3e 7eca 5e3c 536d 97be
00000360: 2beb a13b 95ad 523d b189 003c 7344 87bb
00000370: d014 cbbd 8f8e 0fbe 6f7b cabb 6934 04be
00000380: f707 18be 42ec bdbd e351 ea3c 043d 7ebe
00000390: 57da 87bc 6788 df3d 53fe 663e d031 103e
000003a0: 142d c0be 7fad 2b3d 9009 59be 6a5b 053e
000003b0: 1058 fcbe 2282 93ba 72ac 91bd 4219 d8bc
000003c0: c1d8 20be fc25 c1bb 5fd6 f93d 97b4 0dbf
000003d0: 13b4 cfbe cbb7 45bd 95c6 8f3e faa2 e4bd
000003e0: f95d d5bd 09e7 283e 0279 6c3e a488 92be
000003f0: 785f 42be f3dc 64bc 516d 42be 8991 0abe
0.33266357 0.0877125 0.072251864 -0.10957166 -0.08147617 0.17002167 0.10295009 0.044131633
-0.099212356 0.19985494 0.16515337 0.16642906 -0.19196159 0.12632407 0.45362797 -0.13064855
0.33083966 -0.23073736 -0.06294816 -0.0022537273 0.16314955 -0.121382326 -0.21532878 -0.4296119
0.09912078 -0.12075496 0.20269528 -0.09019009 -0.029580329 0.04914264 -0.41097984 -0.15821156
-0.34103662 -0.08632578 0.09644097 -0.14392868 -0.0972147 -0.09782436 -0.09140047 0.07228454
-0.0418204 -0.30866063 0.2097835 0.041784797 0.008681947 -0.065179646 -0.1697725 0.06848416
0.25092953 0.122352816 0.0449304 -0.14844376 -0.17125034 -0.19861124 0.013571014 -0.0028811297
0.26089233 0.11155449 -0.287219 0.16066183 0.36064252 0.11084537 0.0072524217 -0.27667397
-0.1670691 0.1421357 -0.0459391 -0.2514821 0.07950238 0.015576869 0.33050317 -0.104150616
-0.090743154 0.1292887 0.37727356 0.0727914 -0.117527604 0.06294635 0.32184482 -0.18311098
0.08282043 -0.009055689 -0.24413393 -0.13700448 -0.13747332 -0.24797793 0.04904444 0.06717657
0.011245256 0.03143966 -0.18835363 -0.19256754 0.18460168 -0.17545675 -0.6040795 -0.060740605
0.22107913 0.12914862 -0.30816135 0.12807885 -0.36001754 -0.2537506 0.0811291 0.16092217
-0.8605321 0.20094623 0.013868032 -0.31987163 -0.18257985 0.013827391 -0.05385368 -0.16904445
-0.057948772 0.03290555 -0.23150986 0.3180371 -0.3113583 -0.12167024 0.072978735 -0.088445246
0.020278888 -0.16782984 -0.018586816 0.25628406 0.29694748 0.086481206 0.16489652 -0.13743617
-0.35147017 -0.01995705 -0.20616758 -0.046841767 -0.04932386 -0.13375108 -0.44967932 -0.2345464
0.3038359 -0.0072791814 0.084416926 -0.8467637 0.2109537 -0.1169101 -0.065086834 0.2906222
-0.9544902 0.0034507688 -0.10465145 0.05835837 -0.1507242 0.28268483 -0.12923875 0.062162373
0.02781157 0.07912912 0.42704552 -0.066081464 0.25765654 -0.38262329 -0.17123292 0.21653265
0.42025483 -0.2158212 0.08989237 0.030999249 -0.10573657 0.30059502 -0.30525756 0.15160051
-0.4263324 0.31336725 0.03357407 0.23437324 -0.12023313 0.19552396 0.2522322 0.041876122
-0.1807527 -0.022170873 0.20312278 -0.11121338 0.0446725 -0.097295925 0.09260152 -0.070791826
-0.6755572 -0.17418066 0.022568291 -0.07538498 -0.17353663 -0.21500936 -0.07034685 0.04589439
-0.18179438 0.2984389 0.017359318 -0.109442584 -0.1509796 0.017742774 -0.15306598 -0.2875251
0.16072574 -0.0036811149 0.07437768 -0.17663705 0.051230863 0.042091984 0.04309097 0.100059636
-0.36817655 0.13864852 -0.19067095 0.1011591 -0.03242852 0.28006738 0.013598083 -0.29575595
0.0049413643 0.051435072 0.007845328 -0.004128033 -0.09916079 -0.14019226 -0.006179265 -0.12910618
-0.14846788 -0.09273578 0.0286035 -0.24827963 -0.016583605 0.109146886 0.22557954 0.14081502
-0.37534392 0.041913506 -0.21195054 0.13023153 -0.49285936 -0.0011253993 -0.071129695 -0.026379231
-0.15707685 -0.0058944207 0.12199091 -0.55353683 -0.40567073 -0.04827098 0.28081194 -0.11163898
-0.104183145 0.16494383 0.23093036 -0.28619874 -0.18981731 -0.013968694 -0.18987013 -0.1353208

l1.bias f4 [64]
00000000: a7bd 8abe 0849 8dbe c901 d1bd e71e 22be
00000010: 4b77 f8bd 9c5d 7bbe c0f6 23be 1a0a 3a3e
00000020: b6b7 55be ed2e 62be fd48 e63d 3988 d5be
00000030: 75ff e7bc ad71 70be d784 0c3d 9cde f0bd
00000040: 0720 80be bb28 33be 75e5 71be 80a0 f3bd
00000050: 99f5 0bbe cf9b 293d cedd 91be 61a3 95bd
00000060: f966 89bd 01e6 63bd 3acf 46bd 3b7c 02be
00000070: a817 81be 0aab 25be a3e0 8bbe 6482 a73d
00000080: e27d 15be 5263 66be 5b56 b63d 6b2f f8bd
00000090: 3788 9bbd 4eee afbd 9b31 8abe d0ae d43d
000000a0: 0919 26be 3ebe 04be 8c99 efbd 9ed8 473d
000000b0: 914e 1abe 93dd 3d3d daeb 04be 5dfc 443e
000000c0: c471 d8be 6d9f b1bd f17f 12bd 6dd1 47be
000000d0: 1570 9d3d cbda 103c 7aa2 e93c d4cc d1bd
000000e0: b406 81be 3a1b 5fbe 1c58 5fbe 70f4 48be
000000f0: aa68 97bd fe31 87bd 2547 26be 3d54 54be
-0.27097818 -0.2759478 -0.102054186 -0.15832101 -0.12132128 -0.24547428 -0.16012096 0.18167916
-0.20870861 -0.22088213 0.1124439 -0.41705492 -0.028320054 -0.23480864 0.034306373 -0.11761209
-0.25024435 -0.17496006 -0.23622687 -0.11895847 -0.13667907 0.041408356 -0.28489536 -0.07306553
-0.067090936 -0.05563927 -0.04853747 -0.12742703 -0.2521336 -0.16178527 -0.27319822 0.08179167
-0.14598802 -0.22498825 0.0890319 -0.12118419 -0.0759434 -0.08590375 -0.2699097 0.10384905
-0.16220488 -0.12963197 -0.116992086 0.048790567 -0.15069033 0.046353888 -0.12980595 0.19236894
-0.42274296 -0.08672986 -0.035766546 -0.19513483 0.076873936 0.008841227 0.028519858 -0.10244146
-0.25200427 -0.2178773 -0.21810955 -0.19624496 -0.0739301 -0.06601332 -0.16238077 -0.2073526

l2.weight f4 [10, 64]
00000000: 63dc 05bf 3446 293e ca24 b9be bb45 afbe
00000010: 4dd0 c2be da46 88be 165b 2f3e 4a04 473e
00000020: 8e65 80bd 0610 1f3e cba8 393e 570c b4ba
00000030: 7aa5 41bf 4637 91be 4774 bebe 40b9 d2be
00000040: cf38 12bf 640a 88bd d8e0 343e f9ab 723e
00000050: 8b73 093e 8d38 d9be d488 57be 1b26 d43d
00000060: 0789 4cbf 6fe5 e03d 1452 75be a144 c5be
00000070: a74a 55be c2eb e93d 4685 17bf 20e2 eb3d
00000080: 1ece a9be 690f 1f3e ca08 7ebf 1f58 423b
00000090: 45a8 0c3e 193f f1bd 8346 c6be 3f99 e2be
000000a0: 3c09 ccbe 7b95 28be cac0 17bf c40a 1f3e
000000b0: ef2d 193e ac61 8c3d f2ab 0d3e d1d2 103e
000000c0: 1831 e8be 9d38 f33d 9b43 edbe 5e2f 463e
000000d0: 54fc 31bf 3aba 20be 7c94 dbbe 2e7c 7cbf
000000e0: b6f7 753e 8c50 263e 0176 b5be a50e c2be
000000f0: 0827 a23d a0a2 4bbe 5a08 5cbf eff7 b9be
00000100: 8aeb 28bf d5b3 043e 5683 be3d e38e 88be
00000110: e2bf 143e 2b23 09bf c3b8 47be f090 423e
00000120: 5b67 913e 863e b8be c68c afbe 4871 b7be
00000130: 81f3 083e dcdc 2a3e b9e2 d7bd 4e42 173e
00000140: a9e2 b1be ae87 273e 6eb8 e6be 8aef 673e
00000150: cd05 dcbe 475b 32be 418d c7bd c27f 06bf
00000160: 4314 a13d a678 bc3d ff8f a4be 7b24 533e
00000170: 5bf8 36be 0d1a 46bf 41b2 f83d bd03 10bf
00000180: c29f 3e3e bf06 fabe b369 d83d 5ba4 12bf
00000190: 277e 333e 259a f8be caa9 213e 02e0 ec3d
000001a0: 5e91 8dbc 1ee5 433e ae6a b33d 3cb3 46bf
000001b0: 460f dfbe de33 b73c 9c58 e4be 4ccd 83be
000001c0: c130 6dbd a80d e23d b431 7e3e 700d 35be
000001d0: 6b02 1b3e 83e0 11be ef50 d0be c2f6 22bd
000001e0: e3ef 96be f851 203e b389 8ebe e0b3 70be
000001f0: be53 e5bd d6d1 88be ca33 053e 7101 3d3e
00000200: cf7d 6abe 3c06 a9bd 93a2 ef3d 194b 053e
00000210: 99db 11bf 102b 333d dfdb 5f3e 9d59 0b3e
00000220: cc2e 8fbe 0531 39be 5995 debd 3c60 38bf
00000230: 1392 c3be 3180 04be c3f2 de3d 42ac 3e3e
00000240: b91d 8abe 2662 1f3e 1973 23be 8d7b 4b3e
00000250: d6b9 073e 94a8 373e cefe 93bd f1e7 023e
00000260: c961 ac3d 8d23 5dbe 4c23 f93d 5900 4c3e
00000270: c55f 5abe 1bae 1dbe 5034 94be 0a77 d13d
00000280: 8c67 ea3b d7ba 13be 607a f4bd 41ad ddbe
00000290: 57b3 43be 16d5 96be ca56 02bd 5fb6 cfbe
000002a0: 8903 87be e484 513e a628 153e b6d5 0a3e
000002b0: 13d0 2bbe 87e4 8f3d 14cb f93d bc75 82be
000002c0: fd0d 26be 0e85 b0be d4b5 493e c5eb a9bd
000002d0: 4d48 40be 0fc0 d33d 3303 993d f37b 66be
000002e0: 835a 673e e790 96be 5f0f a4be 1f94 173e
000002f0: e019 fe3d 147c 253e 01cb 58be 0cc8 77be
00000300: 0bca 26be acf0 573e 346d 073e a0f7 a93d
00000310: e302 19be ab7a 0ebe eb35 51bd 69e9 01bd
00000320: f871 13be 8c99 68be 7756 053e b0fd d1bd
00000330: 1aea 84be 4f73 353e ad11 aa3d 1f14 2b3e
00000340: 9436 3a3e c6ee ce3d 0e9b 39be e4e0 53be
00000350: 678e ca3d e10f 573a 7467 39be f950 2ebd
00000360: 1dd7 803d 8152 adbe f1e8 1abd 3eb2 77be
00000370: 5b78 5cbe 4b89 ed3d 9607 eabd 0ca8 c9bd
00000380: b401 f9bd a588 a5be 8920 a43d 3eec 93bd
00000390: edd9 0f3e 401d 5b3e 1347 f0be 7ffa 1c3e
000003a0: 1808 17be 1855 9dbd d833 d23d 78a6 27be
000003b0: 78d5 b7be 5002 d63d 36c7 0ebe a241 e23d
000003c0: 5bff 483e dc97 b7be 375e b5be dffa a53d
000003d0: 8bd6 373e 787c f03d 8d7f 983d adac 233e
000003e0: 3af6 c1bd bfbd 093e dc1c 213e 4025 2e3e
000003f0: 0d15 b23d c3f6 883d e823 84be ff9b babe
-0.5228941 0.16530687 -0.3616088 -0.34232888 -0.38049546 -0.26616555 0.1712459 0.1943523
-0.0626937 0.15533456 0.18130796 -0.0013736588 -0.7564312 -0.28362483 -0.37198088 -0.4115696
-0.57117933 -0.06642607 0.17663896 0.23698415 0.13422982 -0.42425957 -0.2104829 0.103588305
-0.7989659 0.10981261 -0.23957092 -0.38528922 -0.20829259 0.1142192 -0.59187734 0.11517739
-0.33165067 0.15533222 -0.9923216 0.0029654575 0.13736065 -0.11779613 -0.3872567 -0.44257542
-0.39850795 -0.16463272 -0.5927855 0.1553145 0.14958929 0.06854567 0.13835123 0.1414292
-0.45349956 0.118760325 -0.4634064 0.19354007 -0.6952565 -0.1569604 -0.42886722 -0.98626983
0.24020275 0.16241664 -0.35441592 -0.37901798 0.07917601 -0.19886255 -0.85950243 -0.3632197
-0.65984404 0.12959225 0.09302394 -0.26671514 0.14526322 -0.5356929 -0.19504075 0.19000602
0.28399166 -0.35985202 -0.3428709 -0.35828614 0.1337414 0.16685814 -0.10541291 0.14771387
-0.3474324 0.16360351 -0.45062584 0.2264997 -0.42973176 -0.17417632 -0.09743739 -0.5253869
0.07865193 0.09202699 -0.3214111 0.20619385 -0.17868178 -0.773835 0.12143374 -0.56255704
0.1861563 -0.48833272 0.105670355 -0.57282037 0.17528592 -0.48555103 0.15787426 0.115661636
-0.01728123 0.1913037 0.08760582 -0.7761724 -0.4356634 0.0223636 -0.44598854 -0.25742567
-0.057907823 0.11037761 0.24823648 -0.17680907 0.15137641 -0.142458 -0.40686747 -0.039786108
-0.29479894 0.15656269 -0.2783943 -0.23506117 -0.11197613 -0.26722592 0.13008037 0.18457581
-0.22899555 -0.08253142 0.117009304 0.13016929 -0.56975704 0.04374224 0.21861218 0.13608404
-0.2796539 -0.18085106 -0.108683296 -0.7202184 -0.38197383 -0.12939526 0.10886147 0.18620399
-0.26975802 0.15564784 -0.15961875 0.1987135 0.13254485 0.17935401 -0.072263345 0.12783791
0.084170885 -0.21595593 0.121649355 0.19922008 -0.21325596 -0.15398447 -0.2894616 0.10227783
0.007153457 -0.14426742 -0.11937404 -0.43296245 -0.19111381 -0.29459447 -0.03182105 -0.40568826
-0.26369885 0.2046085 0.14566287 0.13558087 -0.16778593 0.0702601 0.12196937 -0.2548045
-0.16216274 -0.34476513 0.19698268 -0.082969226 -0.1877758 0.10339367 0.07471313 -0.2250822
0.22593121 -0.29407427 -0.32042977 0.14802597 0.12407279 0.16160613 -0.2117119 -0.24197406
-0.16288011 0.21087903 0.13225251 0.08299184 -0.14942507 -0.13913982 -0.05107681 -0.031716738
-0.14398944 -0.22714823 0.13021265 -0.10253465 -0.25959855 0.17719768 0.08304153 0.16706894
0.18184882 0.10104136 -0.18125555 -0.20691258 0.09890442 0.0008203965 -0.1810587 -0.04255769
0.062910296 -0.33852008 -0.037819806 -0.24189088 -0.21530287 0.11598452 -0.11427228 -0.098465055
-0.12158528 -0.32330814 0.08014018 -0.07222794 0.14047976 0.21397877 -0.46929225 0.15329932
-0.14749181 -0.07682246 0.10263795 -0.16372097 -0.3590505 0.1044966 -0.1394318 0.11047675
0.1962866 -0.35858047 -0.35423443 0.081044905 0.17952935 0.117424905 0.074462034 0.1598384
-0.09470792 0.13451289 0.15733665 0.17006397 0.08695421 0.06687691 -0.25808644 -0.3644714

l2.bias f4 [10]
00000000: a72a 593f dee2 ae3e d1d0 aebd d591 13bf
00000010: ccd7 77bc 467c 05be 3d77 dfbd db37 98bd
00000020: eb03 d73e c42e d73c
0.8483071 0.3415746 -0.08535922 -0.576444 -0.015127134 -0.13035688 -0.10911415 -0.074325286
0.41995177 0.026267417
